src/MLP_train/best_mlp_model.pth (torch, 770249 bytes, 3 tensors)

fc1.weight f4 [64, 3000]
-0.0007351411 0.0109580355 -0.033939008 -0.11370805 -0.030352166 0.0032319843 0.01983862 -0.00015708769
0.0025699663 -0.022052376 0.007861237 -0.028514806 0.05519804 0.019193865 -0.036478918 -0.023104712
0.017769516 0.005437888 0.03805394 -0.012071098 -0.04482807 -0.043376315 -0.041289974 -0.029680558
-0.0060326685 0.0050016325 -0.0029542975 0.0146154445 0.009052499 -0.000120724595 -0.00884972 -0.015650742
0.009368338 0.022367774 0.049745824 -0.012089128 -0.007566301 -0.0024707008 -0.03914449 -0.036355462
-0.012604652 0.0006618649 -0.019123957 -0.00020855556 0.0037966375 -0.010557252 0.004006747 0.002617822
0.0017116852 -0.033637762 0.025084745 -0.032442346 0.0136808 0.023720304 0.028598841 0.015355306
0.012804516 0.030177074 0.011650305 0.0052693044 -0.005567386 -0.014860951 0.003510592 0.037011947
0.02314577 0.016060779 0.008403561 0.027443286 -0.0192033 0.0067448714 0.023835864 -0.0038593765
0.009278476 0.0007945845 -0.0045900308 0.0056982394 0.017825523 -0.009312382 -0.009370109 -0.0011150887
-0.0016482375 -0.025284115 -0.01999519 0.03203182 0.013255882 0.007743273 0.044023275 0.004632631
-0.028728956 0.018600848 -0.0026455827 0.010946157 0.014252646 0.014931395 0.0019718367 -0.005289722
-0.0052122963 0.016171051 0.013104571 0.020630516 0.010362576 -0.019027255 2.4914596e-05 -0.0041486085
0.025345676 0.014646199 -0.008997959 0.004888214 0.025198147 -0.026878044 0.043784592 0.016037205
-0.03020468 0.055681285 0.008465526 0.0073892274 -0.011480372 0.044724796 0.028134009 0.03729428
0.031571332 0.013080636 0.011000876 -0.02539023 0.033493895 -0.004023521 -0.010505932 -0.011772018
-0.033796936 0.052583706 -0.024777941 -0.0031427061 0.006410863 -0.034595534 0.0014068562 0.0035477085
0.041787297 0.023673726 -0.046426922 0.028440904 0.018719342 -0.007199798 0.015285249 0.037328564
0.057864133 -0.0007814723 0.019690929 0.0061728656 -0.015242006 0.0312518 0.05226726 -0.02140758
0.019019661 -0.0060404465 -0.012730359 -0.0024168338 0.004037389 0.03811934 0.018883834 0.00944864
-0.0015547143 0.02296502 -0.020686964 -0.028362375 0.02588552 -0.01532855 0.015271384 -0.004076823
-0.014967378 0.01508596 0.02880233 0.026296057 0.036418002 -0.030515872 -0.004167042 0.019780936
-0.028688129 0.056299258 0.0050172876 0.049024414 0.013241053 0.0504934 0.0116234645 0.04109303
-0.026846122 0.009492948 0.024195084 0.02159612 -0.006211876 -0.0037390285 -0.0018038361 0.009994541
-0.003496097 0.009734772 0.015640054 0.035195787 0.02471634 0.06630014 0.022525035 -0.004471525
-0.029423498 -0.054715715 -0.0017097378 -0.009892263 0.003613059 0.03917663 0.012263285 0.016767958
0.008746559 0.011139102 0.01521136 -0.02317786 -0.022280624 0.004988635 0.003884447 0.04325118
0.04110264 -0.014035099 0.042424243 0.0019166721 0.00566268 0.058955908 0.002927003 0.015323456
0.038784012 0.014939458 0.033158727 0.045145933 0.0041220733 -0.015156405 -0.028288454 -0.007359296
0.044866785 0.02498873 0.050315645 -0.04153963 0.012569023 0.040775713 0.0022113963 0.018970327
0.048216578 0.0308197 -0.019093923 0.015794221 0.04156695 -0.045285724 0.050082322 -0.030351577
-0.012193097 0.029636137 -0.00294502 0.028637143 0.055862874 -0.015749888 0.0033074918 0.014637415
00000000: 7cb6 40ba 5589 333c a103 0bbd c4df e8bd
00000010: 1ba5 f8bc b3cf 533b 9a84 a23c e8b7 24b9
00000020: e16c 283b 2fa7 b4bc 6bcc 003c e297 e9bc
00000030: 5717 623d 743c 9d3c eb6a 15bd 1846 bdbc
00000040: 6091 913c 5030 b23b 73de 1b3d dbc5 45bc
00000050: a39d 37bd 5dab 31bd ad1f 29bd a424 f3bc
00000060: b1ad c5bb bce4 a33b e39c 41bb 9e75 6f3c
00000070: ef50 143c 862d fdb8 6afe 10bc fc35 80bc
00000080: a87d 193c 9f3c b73c 47c2 4b3d 7a11 46bc
00000090: bcee f7bb 7beb 21bb f955 20bd 77e9 14bd
000000a0: be83 4ebc 0081 2d3a d8a9 9cbc b5af 5ab9
000000b0: 02d1 783b 53f8 2cbc 084b 833b c48f 2b3b
000000c0: a05a e03a c0c7 09bd 867e cd3c 44e2 04bd
000000d0: 6f25 603c 1551 c23c 1e48 ea3c d294 7b3c
000000e0: 08ca 513c e935 f73c ece0 3e3c 21aa ac3b
000000f0: 9e6e b6bb 597b 73bc f611 663b d799 173d
00000100: 339c bd3c e591 833c 17af 093c bed0 e03c
00000110: 3d50 9dbc 1504 dd3b 6e43 c33c 98ed 7cbb
00000120: c004 183c aa4b 503a f867 96bb 4cb8 ba3b
00000130: d506 923c f692 18bc 1685 19bc 2b28 92ba
00000140: ac09 d8ba a220 cfbc f4cc a3bc cc33 033d
00000150: 332f 593c 48bb fd3b c051 343d 53cd 973b
00000160: fd58 ebbc ce60 983c 8361 2dbb 8357 333c
00000170: ee83 693c cfa2 743c ee39 013b 6755 adbb
00000180: e9cb aabb 2779 843c 8eb4 563c 5401 a93c
00000190: cbc7 293c 0cdf 9bbc b0ff d037 0df1 87bb
000001a0: bca1 cf3c 9cf6 6f3c 2d6c 13bc 502d a03b
000001b0: 586c ce3c 582f dcbc 7957 333d 7560 833c
000001c0: ce6f f7bc 0f12 643d fdb2 0a3c 5521 f23b
000001d0: 2c18 3cbc 5931 373d 4b79 e63c e3c1 183d
000001e0: f150 013d 2a50 563c 053d 343c 2cff cfbc
000001f0: e530 093d bed7 83bb 1321 2cbc 6cdf 40bc
00000200: a86e 0abd 0362 573d 1cfb cabc dcf5 4dbb
00000210: 3712 d23b 0cb4 0dbd 4366 b83a ac80 683b
00000220: 2829 2b3d 67ef c13c 282a 3ebd e6fc e83c
00000230: 4e59 993c 48ec ebbb fb6e 7a3c d6e5 183d
00000240: f102 6d3d b8db 4cba df4e a13c c045 ca3b
00000250: 9bb9 79bc e301 003d 3216 563d f35e afbc
00000260: 1fcf 9b3c f0ee c5bb ff92 50bc be63 1ebb
00000270: 134c 843b 0623 1c3d 45b2 9a3c 78ce 1a3c
00000280: 8ec7 cbba 2321 bc3c b577 a9bc 3658 e8bc
00000290: df0d d43c 9924 7bbc d434 7a3c df96 85bb
000002a0: bc39 75bc 1a2b 773c ddf2 eb3c d46a d73c
000002b0: 0b2b 153d 6cfc f9bc af8b 88bb a10b a23c
000002c0: 5e03 ebbc 0d9a 663d 0f68 a43b d3cd 483d
000002d0: 00f1 583c 2bd2 4e3d 5870 3e3c 2a51 283d
000002e0: 66ec dbbc 4f88 1b3c c534 c63c 59ea b03c
000002f0: fe8c cbbb 7d0a 75bb b26e ecba 25c0 233c
00000300: c61e 65bb 987e 1f3c 921f 803c 7529 103d
00000310: ec79 ca3c 5ec8 873d 6c86 b83c df85 92bb
00000320: 8c09 f1bc 961d 60bd 4819 e0ba 2913 22bc
00000330: 12c9 6c3b ad77 203d f2eb 483c f55c 893c
00000340: ba4d 0f3c c880 363c 1139 793c 7fdf bdbc
00000350: db85 b6bc b477 a33b 3592 7e3b 2628 313d
00000360: 3e5b 283d 79f3 65bc 0bc5 2d3d d838 fb3a
00000370: 018e b93b c07b 713d f6d2 3f3b 3c0f 7b3c
00000380: fcdb 1e3d a1c4 743c 72d1 073d f1ea 383d
00000390: 7512 873b 9252 78bc 30bd e7bc 4026 f1bb
000003a0: 3cc6 373d 2ab5 cc3c c717 4e3d 7625 2abd
000003b0: 4eee 4d3c 6f04 273d 13ed 103b a967 9b3c
000003c0: bf7e 453d 9879 fc3c dc6a 9cbc e262 813c
000003d0: 1b42 2a3d 867d 39bd 1f23 4d3d dfa3 f8bc
000003e0: 8ec5 47bc 7cc7 f23c 3d01 41bb 7198 ea3c
000003f0: 78d0 643d e905 81bc 81c2 583b c5d1 6f3c

fc1.bias f4 [64]
0.07552528 0.08849124 0.04201576 0.04139003 0.08321521 0.10217879 0.06585366 0.035852343
0.09440158 0.08591733 0.07310529 0.05189985 0.029540088 -0.032268167 0.07884044 0.08111197
0.030859083 0.046954483 0.0760416 0.040994767 -2.4942507e-05 0.07926604 0.048335526 0.09113585
0.07068897 0.069753125 0.008638235 0.04643733 0.108910486 0.03894348 0.088455185 0.001550809
-0.008824218 0.07130711 0.09855373 -0.011856232 0.081572 -0.02861548 -0.027643574 0.08297027
-0.025461912 0.07083639 0.0697066 0.03442403 0.012329688 0.09118783 0.018549237 0.079474494
0.09614137 0.09403405 0.07708778 0.07791827 0.088511564 0.024489006 -0.028104847 0.0063629043
0.10170881 0.050962057 -0.033592522 0.091023006 0.08172632 0.089744896 0.09417389 -0.02181948
00000000: ffac 9a3d e53a b53d b818 2c3d 9888 293d
00000010: bc6c aa3d 1d43 d13d 49de 863d e8d9 123d
00000020: 9e55 c13d 6df5 af3d 3ab8 953d f094 543d
00000030: 0efe f13c a02b 04bd 1977 a13d 081e a63d
00000040: 30cc fc3c 5853 403d b3bb 9b3d 21ea 273d
00000050: a03b d1b7 3c56 a23d 79fb 453d 6fa5 ba3d
00000060: 61c5 903d bada 8e3d 6287 0d3c 1235 3e3d
00000070: 760c df3d 3383 1f3d fe27 b53d 8444 cb3a
00000080: 7493 10bc 7609 923d 8ad6 c93d a440 42bc
00000090: 390f a73d 036b eabc c774 e2bc 51ec a93d
000000a0: 8095 d0bc ab12 913d 55c2 8e3d 3600 0d3d
000000b0: 7602 4a3c afc0 ba3d 92f4 973c 86c3 a23d
000000c0: c4e5 c43d ed94 c03d 33e0 9d3d 9d93 9f3d
000000d0: 8d45 b53d 2b9d c83c 233c e6bc e97f d03b
000000e0: b54c d03d 97bd 503d 5098 09bd 456a ba3d
000000f0: 2160 a73d 2ccc b73d 3ede c03d c4be b2bc

fc2.weight f4 [1, 64]
-0.1832094 -0.13717915 0.19772664 0.09282783 -0.17621571 -0.13101798 -0.25337026 0.12491932
-0.19403102 -0.1832727 -0.16036078 0.15163988 0.117073104 0.081305675 -0.22805656 -0.2130067
0.17590502 0.21835284 -0.1519144 0.13566446 0.07871176 -0.15974507 0.21635218 -0.21298313
-0.22453389 -0.20567164 0.104211695 0.19492862 -0.12806654 0.117139645 -0.15998854 0.06806727
0.11704017 -0.20921032 -0.14329168 0.013470837 -0.19013971 0.09817216 0.09523104 -0.16736743
0.023513833 -0.25312388 -0.20956713 0.131249 0.1289577 -0.18661489 0.13299476 -0.15321496
-0.13111462 -0.16304708 -0.16651869 -0.22478965 -0.16346568 0.124048166 0.05250798 0.08040999
-0.14268309 0.12466466 0.05718898 -0.23037897 -0.23831727 -0.23143613 -0.14915717 0.07536497
00000000: 3f9b 3bbe b178 0cbe da78 4a3e 841c be3d
00000010: e471 34be 9429 06be bfb9 81be b3d5 ff3d
00000020: 11b0 46be d7ab 3bbe 9e35 24be 7c47 1b3e
00000030: 06c4 ef3d 9783 a63d a987 69be 6e1e 5abe
00000040: 7220 343e e397 5f3e 738f 1bbe a0eb 0a3e
00000050: a233 a13d 3694 23be 6d8b 5d3e 4018 5abe
00000060: 36ec 65be 969b 52be f16c d53d 5e9b 473e
00000070: e023 03be e9e6 ef3d 09d4 23be da66 8b3d
00000080: c2b2 ef3d 3b3b 56be 0ebb 12be c9b4 5c3c
00000090: fcb3 42be 7c0e c93d 7e08 c33d 5e62 2bbe
000000a0: 15a0 c03c 7499 81be c498 56be 2366 063e
000000b0: 7d0d 043e f917 3fbe c72f 083e 62e4 1cbe
000000c0: e942 06be d0f5 26be e083 2abe 422f 66be
000000d0: 8c63 27be f70c fe3d 9c12 573d fead a43d
000000e0: 841b 12be 2f50 ff3d fe3e 6a3d 77e8 6bbe
000000f0: 7109 74be 98fd 6cbe a8bc 18be f358 9a3d
